nanjing/best_model.pth (torch, 211106 bytes, 10 tensors)

lstm.weight_ih_l0 f4 [256, 6]
0.0288814 0.08462919 -0.08409379 0.04450412 -0.04267491 -0.09891206 -0.017444603 -0.14926936
0.11822587 -0.0067532565 0.020870209 -0.08045463 0.04026888 -0.043357443 0.09179935 -0.005931056
0.08161231 -0.14273576 0.04806071 -0.10293775 -0.07410488 -0.07081408 0.04166042 0.04104897
-0.13170563 -0.11333488 0.108799554 0.033310536 0.08270381 -0.06716922 0.020071823 -0.057700988
-0.03405287 0.0070677344 0.09184088 0.013268478 0.015009215 -0.07862869 0.09110205 -0.106267095
0.11240689 0.031233054 0.061726328 -0.058383238 -0.11660455 0.064104356 -0.08047356 0.15878811
-0.08898545 0.006017463 0.11757042 -0.024503572 0.05824171 -0.02787254 -0.06565563 -0.03668616
0.041536875 0.050312158 -0.09973772 -0.0029982582 0.06529017 -0.09395456 0.055426948 0.06673605
0.023901708 0.009327152 -0.030323783 0.101250686 -0.027370034 -0.045180395 0.12746942 0.002295509
0.012369097 0.05244669 0.13249654 -0.028413398 0.03419643 0.025047489 0.015609999 0.05036561
0.015338112 0.07895407 0.066157825 -0.012388774 -0.038205523 0.030202238 -0.12953651 0.01832261
-0.021457208 0.038956083 0.10825691 -0.029470555 0.05599624 0.06767249 0.11084742 0.09735571
0.08531845 -0.096920684 -0.03754419 0.07692495 0.13848998 -0.11023247 0.081391096 -0.12481274
0.13539268 0.09858395 -0.060680635 -0.030854475 -0.07047247 0.04535532 -0.09371816 0.10092554
0.0961318 0.11095639 -0.02965626 -0.014383221 -0.05168378 0.051820222 0.010681979 -0.06327553
0.009678495 0.066279076 -0.101178795 -0.099964485 0.12422717 0.0123245185 0.048022106 -0.009741329
0.1385377 -0.12021579 0.05615873 0.05516049 0.06617142 -0.04969084 0.018787071 -0.09499099
-0.029559303 0.04128312 0.1569741 0.0597739 0.023991184 -0.04760105 -0.015459323 0.15152028
-0.010677127 -0.03597504 0.079086445 0.071969576 0.06453216 0.077447 0.048184287 -0.06420097
0.021548526 0.08097214 -0.0113866255 0.040914867 -0.13888498 -0.019458082 0.08905572 0.040960014
0.07298321 -0.045496047 0.07684868 -0.13322611 0.027870292 0.08088534 -0.030989394 -0.093529046
0.05425963 -0.009911545 0.03248578 0.04557521 -0.07146435 -0.071595624 0.036761742 -0.04367297
-0.04601565 0.055516105 0.06697638 0.069191314 -0.1272486 0.085520335 0.008873508 0.01773778
0.13342549 0.039812643 -0.10682574 0.016641112 -0.020043284 0.08536169 0.07140814 0.0006549622
-0.08892321 -0.077224486 0.053208537 -0.09494771 -0.01113211 -0.09761313 -0.04577469 -0.032049336
0.023136783 -0.14537902 -0.10270232 -0.06758687 -0.059693467 -0.12812717 -0.07571722 0.035884835
0.038083732 0.0569928 0.061253313 -0.011870555 0.11071954 -0.09662394 0.07249461 0.060509842
-0.006503452 -0.13537787 -0.023977967 0.039312918 0.1515965 -0.1310687 -0.03174732 -0.04175874
0.004332198 0.06803125 -0.051467028 -0.025146957 -0.05643112 0.024321124 -0.092445575 -0.019198587
-0.014611693 0.13471705 0.019368492 -0.10285632 -0.13092978 -0.037108466 -0.0045384504 0.013748382
-0.124255575 0.016881311 0.12834331 -0.016165243 -0.08900607 -0.04459423 -0.016110566 -0.121171914
-0.0024056935 -0.09814072 -0.0074655414 -0.086497046 -0.057376757 0.09681098 0.011213643 -0.08848326
00000000: b098 ec3c 1252 ad3d 5d39 acbd f449 363d
00000010: e3cb 2ebd 6892 cabd fce7 8ebc 11da 18be
00000020: 6820 f23d 6c4a ddbb 00f8 aa3c 66c5 a4bd
00000030: fbf0 243d 9397 31bd 4c01 bc3d 4e59 c2bb
00000040: 5b24 a73d 5329 12be 4fdb 443d 07d1 d2bd
00000050: 4dc4 97bd f906 91bd 1ea4 2a3d f722 283d
00000060: d7dd 06be 1e1c e8bd 4dd2 de3d a170 083d
00000070: 9d60 a93d 0490 89bd aa6d a43c df57 6cbd
00000080: 067b 0bbd 7498 e73b 1217 bc3d 0864 593c
00000090: 36e9 753c 1408 a1bd b693 ba3d 90a2 d9bd
000000a0: 9535 e63d 76dc ff3c bfd4 7c3d 4323 6fbd
000000b0: 5ece eebd 2549 833d 52cf a4bd 5a99 223e
000000c0: 013e b6bd 232e c53b c3c8 f03d b7bb c8bc
000000d0: dc8e 6e3d f454 e4bc 7576 86bd 3a44 16bd
000000e0: 9222 2a3d 1f14 4e3d 4a43 ccbd 6d7e 44bb
000000f0: dab6 853d 406b c0bd 5e07 633d e9ac 883d
00000100: 84cd c33c e9d0 183c 9569 f8bc 855c cf3d
00000110: 1f37 e0bc 140f 39bd 5887 023e 4070 163b
00000120: c1a7 4a3c 57d2 563d 2cad 073e 37c3 e8bc
00000130: 8e11 0c3d 6430 cd3c 15c1 7f3c 2b4c 4e3d
00000140: b44c 7b3c acb2 a13d c17d 873d 49fa 4abc
00000150: 657d 1cbd af6a f73c 38a5 04be 4c19 963c
00000160: 07c7 afbc 6a90 1f3d cdb5 dd3d 3c6c f1bc
00000170: 505c 653d e097 8a3d f903 e33d 6e62 c73d
00000180: 71bb ae3d 5a7e c6bd f0c7 19bd d48a 9d3d
00000190: 51d0 0d3e 90c1 e1bd 60b0 a63d d29d ffbd
000001a0: 61a4 0a3e 62e6 c93d 428c 78bd 86c2 fcbc
000001b0: df53 90bd 80c6 393d 4fef bfbd 0db2 ce3d
000001c0: c0e0 c43d 1b3d e33d aff1 f2bc 9aa7 6bbc
000001d0: 5fb2 53bd 7141 543d 7803 2f3c 9a96 81bd
000001e0: 8d92 1e3c 53bd 873d d436 cfbd 2eba ccbd
000001f0: d16a fe3d c7ec 493c d4b2 443d 189a 1fbc
00000200: d4dc 0d3e b233 f6bd b206 663d f7ef 613d
00000210: e284 873d 9f88 4bbd 58e7 993c a38a c2bd
00000220: 5a26 f2bc 7d18 293d d2bd 203e 7ad5 743d
00000230: 2989 c43c 52f9 42bd 1a49 7dbc 2228 1b3e
00000240: 1eef 2ebc 905a 13bd 13f8 a13d c964 933d
00000250: 7029 843d 889c 9e3d e35c 453d cc7b 83bd
00000260: 8986 b03c b9d4 a53d f88e 3abc 5996 273d
00000270: dd37 0ebe 8e66 9fbc d862 b63d b0c5 273d
00000280: 3978 953d 105a 3abd d762 9d3d 6d6c 08be
00000290: 3d50 e43c 37a7 a53d 78dd fdbc 288c bfbd
000002a0: 593f 5e3d 0864 22bc cf0f 053d 12ad 3a3d
000002b0: e75b 92bd baa0 92bd 7b93 163d 6ee2 32bd
000002c0: e87a 3cbd db64 633d ea2a 893d 2db4 8d3d
000002d0: 754d 02be 4925 af3d 3162 113c d24e 913c
000002e0: b1a0 083e 9512 233d 74c7 dabd f152 883c
000002f0: d031 a4bc 1cd2 ae3d 6e3e 923d c5b1 2b3a
00000300: 5f1d b6bd df27 9ebd 32f1 593d f273 c2bd
00000310: 7463 36bc 65e9 c7bd 3e7e 3bbd 2a46 03bd
00000320: 5a89 bd3c 3dde 14be 9855 d2bd fc6a 8abd
00000330: 2381 74bd c533 03be a111 9bbd fafb 123d
00000340: b0fd 1b3d 4871 693d c1e4 7a3d b77c 42bc
00000350: edc0 e23d c6e2 c5bd 0e78 943d 2bd9 773d
00000360: e91a d5bb 7fa0 0abe 716d c4bc 9506 213d
00000370: 1d3c 1b3e e036 06be 7a09 02bd 360b 2bbd
00000380: 1cf5 8d3b f853 8b3d 17cf 52bd fe00 cebc
00000390: 5124 67bd 183d c73c 1b54 bdbd 5b46 9dbc
000003a0: e265 6fbc 44f3 093e acaa 9e3c 56a6 d2bd
000003b0: 7512 06be 0cff 17bd 48b7 94bb e540 613c
000003c0: b579 febd ad4a 8a3c 6e6c 033e f96c 84bc
000003d0: d048 b6bd 70a8 36bd 4efa 83bc fb28 f8bd
000003e0: d7a8 1dbb 00fe c8bd 80a1 f4bb 5d25 b1bd
000003f0: e403 6bbd d644 c63d 6db9 373c b636 b5bd

lstm.weight_hh_l0 f4 [256, 64]
-0.07720222 0.023019427 0.09076424 0.092274725 0.013552184 0.055758573 -0.13870484 -0.022818293
-0.14278926 -0.11301878 -0.09405807 0.056571238 0.094184965 0.16705626 -0.02591468 -0.153295
0.09726623 -0.0757073 0.09032594 -0.09395604 0.0038565283 0.07013016 0.10113348 -0.114765294
0.013805726 -0.08187758 -0.03034945 -0.041755803 0.04172171 -0.035149217 -0.05033196 -0.032231804
-0.101829566 0.05048111 -0.045403883 0.113116644 -0.016666722 -0.061913215 -0.15257592 -0.08837424
-0.06534699 0.014453174 0.022343233 0.060417403 0.099549964 0.008339175 0.04214954 0.042280108
-0.00031862524 0.08999857 -0.033622146 0.06777609 -0.05480328 -0.07395004 -0.0842873 0.06473202
0.054437745 0.04527884 -0.11094493 0.056192324 0.015029041 0.09105989 -0.022701707 0.012429141
0.074059255 -0.08860033 0.015691733 0.039742954 0.12542611 -0.008292548 -0.14552122 0.06075603
-0.02207068 -0.034253825 -0.077936865 0.0386277 0.054669466 0.0044939006 -0.008549714 -0.10297734
0.08499309 0.117501035 -0.01788993 0.043150265 0.10818684 -0.14703597 0.09520147 -0.005641603
0.027608354 0.03605486 -0.02893285 0.122707486 0.006576242 -0.025724411 -0.051960185 -0.005451762
0.12718709 -0.08471373 0.084741004 0.16096103 -0.06632942 0.056121223 0.06356925 0.036801282
0.115425125 0.038591042 0.04140456 -0.08599674 0.107443266 -0.026184341 -0.0069352007 0.09885021
0.034375735 0.042543035 -0.09603315 0.0669888 -0.06509427 -0.035927277 0.038936198 -0.0010294591
0.13311045 -0.01028675 -0.07855986 -0.038721748 0.10927223 0.10903835 -0.058786802 0.074814655
-0.102974914 -0.13864127 0.08670586 0.002367252 -0.049205936 0.09657919 0.07850252 -0.15719214
-0.06816336 -0.011123879 0.14932756 0.08966734 0.06398195 0.13324685 -0.15338354 0.017826134
0.044952862 0.048666615 0.051514637 -0.08914605 0.031428717 -0.06957457 0.026284382 0.16006845
0.11330497 -0.011192598 -0.027597396 -0.05486917 -0.027315188 -0.057407644 0.11503927 -0.0978319
0.030711068 -0.036486544 -0.086966835 -0.0039057254 -0.049221784 -0.023111328 0.09728209 0.05579252
-0.078686856 0.07460726 0.059455365 0.101371236 -0.07310399 -0.12907709 -0.029228292 -0.14323056
-0.04152282 -0.05047397 -0.0063623316 0.040334683 -0.08498979 0.028525818 0.07621902 -0.011712025
-0.020863295 0.12846231 -0.009218035 -0.06542082 -0.14655079 -0.021193147 -0.11121815 -0.08514969
-0.039683584 -0.13236436 -0.077058055 -0.015325556 0.053067725 -0.14237249 -0.1362068 0.03547601
-0.10371086 0.0046258112 -0.06020096 0.10773621 0.033179242 -0.02004462 -0.0758905 -0.1161203
-0.05130481 0.12845322 0.08741239 -0.06419822 -0.009268829 0.08766844 0.015637182 -0.06501378
-0.020161312 -0.099516 -0.11084784 0.029216833 0.051596094 -0.13688432 0.07992374 -0.04167445
-0.079250224 -0.14082839 0.035102483 -0.09388995 0.04489654 -0.13104391 -0.040578526 -0.058166653
0.06457703 -0.07699924 -0.019518498 -0.1020253 -0.12666798 -0.023750367 0.043749645 0.026726611
-0.0042695934 0.02416868 -0.03290294 0.10008611 -0.029438907 -0.095350645 -0.07362297 0.033007592
0.07275888 0.10960315 0.00075673725 -0.076199934 -0.111169726 -0.06517537 0.0022209496 0.09661484
00000000: 331c 9ebd 3d93 bc3c 9ae2 b93d 88fa bc3d
00000010: fb09 5e3c 1a63 643d a408 0ebe 6eed babc
00000020: 5937 12be 6476 e7bd 84a1 c0bd 3eb7 673d
00000030: 0ce4 c03d cc10 2b3e 064b d4bc 5df9 1cbe
00000040: 8433 c73d 6e0c 9bbd cefc b83d 066c c0bd
00000050: cfbd 7c3b 67a0 8f3d 121f cf3d 110a ebbd
00000060: 6931 623c 6faf a7bd 699f f8bc 2208 2bbd
00000070: 62e4 2a3d a0f8 0fbd e328 4ebd 7f05 04bd
00000080: 058c d0bd 48c5 4e3d 6cf9 39bd b3a9 e73d
00000090: a688 88bc b698 7dbd dd3c 1cbe 8efd b4bd
000000a0: a5d4 85bd 01cd 6c3c 2809 b73c 3d78 773d
000000b0: dae0 cb3d 09a1 083c ffa4 2c3d e82d 2d3d
000000c0: 280d a7b9 2c51 b83d 60b7 09bd 31ce 8a3d
000000d0: 6779 60bd 1e73 97bd d29e acbd 3992 843d
000000e0: 1dfa 5e3d 4e76 393d 1837 e3bd ec29 663d
000000f0: 5e3c 763c 9c7d ba3d eef8 b9bc 99a3 4b3c
00000100: 61ac 973d 1774 b5bd f38b 803c 82c9 223d
00000110: b46f 003e 78dd 07bc 8403 15be 51db 783d
00000120: 92cd b4bc bd4d 0cbd 5d9d 9fbd 1438 1e3d
00000130: 17ed 5f3d 9241 933b 1a14 0cbc c9e5 d2bd
00000140: db10 ae3d 62a4 f03d e78d 92bc 55be 303d
00000150: 1091 dd3d 9990 16be fdf8 c23d 32dd b8bb
00000160: ea2a e23c 43ae 133d 9604 edbc 104e fb3d
00000170: 847d d73b 00bc d2bc 34d4 54bd b2a4 b2bb
00000180: 553d 023e 647e adbd b18c ad3d f8d2 243e
00000190: b8d7 87bd 5edf 653d 9830 823d f1bc 163d
000001a0: 0264 ec3d a411 1e3d d497 293d 0f1f b0bd
000001b0: 370b dc3d 8b80 d6bc ae40 e3bb fb71 ca3d
000001c0: 92cd 0c3d 9b41 2e3d 07ad c4bd 6d31 893d
000001d0: 2550 85bd 7b28 13bd 907b 1f3d eaee 86ba
000001e0: 1b4e 083e c289 28bc fee3 a0bd b29a 1ebd
000001f0: 1eca df3d 804f df3d 6eca 70bd 6d38 993d
00000200: 83e4 d2bd faf7 0dbe d892 b13d e623 1b3b
00000210: 2a8c 49bd 4fcb c53d eec5 a03d faf6 20be
00000220: 3b99 8bbd ee40 36bc 53e9 183e 83a3 b73d
00000230: f808 833d dd71 083e 9310 1dbe 1d08 923c
00000240: 7e20 383d a556 473d 0301 533d 3492 b6bd
00000250: 66bb 003d 1d7d 8ebd 5852 d73c fce8 233e
00000260: 700c e83d 2961 37bc ef13 e2bc 7fbe 60bd
00000270: 1ac4 dfbc 4724 6bbd b599 eb3d 175c c8bd
00000280: c795 fb3c ea72 15bd ab1b b2bd 33f7 7fbb
00000290: c89c 49bd f853 bdbc d53b c73d b386 643d
000002a0: 9326 a1bd b1cb 983d 7887 733d b99b cf3d
000002b0: 8bb7 95bd c92c 04be 2c70 efbc 08ab 12be
000002c0: d513 2abd cbbd 4ebd 1b7b d0bb fb35 253d
000002d0: 210f aebd faae e93c b818 9c3d cbe3 3fbc
000002e0: 80e9 aabc a08b 033e 3e07 17bc 5afb 85bd
000002f0: 6911 16be 409d adbc 57c6 e3bd f662 aebd
00000300: 418b 22bd 868a 07be 9dd0 9dbd 0a18 7bbc
00000310: 8b5d 593d 18ca 11be cc79 0bbe 4b4f 113d
00000320: 5c66 d4bd 1e94 973b 4895 76bd cda4 dc3d
00000330: f5e6 073d 9d34 a4bc 7a6c 9bbd 7bd0 edbd
00000340: fe24 52bd 3e89 033e 4405 b33d 5b7a 83bd
00000350: 49dc 17bc 838b b33d 8c19 803c f225 85bd
00000360: 5629 a5bc 0bcf cbbd 3104 e3bd 2458 ef3c
00000370: 6d56 533d 672b 0cbe 0faf a33d d4b2 2abd
00000380: f14d a2bd 5135 10be 9fc7 0f3d 6049 c0bd
00000390: 6fe5 373d 6030 06be ab35 26bd 2840 6ebd
000003a0: f640 843d c7b1 9dbd 42e5 9fbc a4f2 d0bd
000003b0: 40b5 01be 2190 c2bc d432 333d c4f1 da3c
000003c0: f2e7 8bbb 65fd c53c 3cc5 06bd f2f9 cc3d
000003d0: dd29 f1bc 3347 c3bd a4c7 96bd f832 073d
000003e0: 9c02 953d 9e77 e03d c75f 463a b60e 9cbd
000003f0: f4ac e3bd aa7a 85bd 5a8d 113b 00de c53d

lstm.bias_ih_l0 f4 [256]
0.034206152 0.098730534 -0.006528297 -0.08356699 0.06467952 -0.05756333 -0.021081392 -0.01160221
0.13814677 0.12851702 0.14651802 0.10246589 0.0009795855 0.022380328 -0.0670525 0.10846056
0.12154363 0.0881773 0.109712735 0.04527237 0.04009162 0.12023944 -0.06805978 -0.040439107
0.14603204 0.004471873 -0.012264257 0.09573402 0.13880678 -0.07977458 0.096509136 -0.08918315
0.116046265 0.06029251 -0.0062518166 0.10948394 0.14899196 0.14924927 0.021166768 0.09849588
0.080042094 -0.0050439257 -0.036238186 0.052788142 -0.018625034 0.16595276 -0.076185934 -0.053284653
-0.052262142 0.015827946 -0.01758102 -0.07575826 0.03066735 0.13164248 0.060676374 0.09262153
-0.08229577 0.13262479 0.10812443 0.03346698 -0.08657936 0.020130737 -0.06637684 -0.055706277
0.041928023 0.16609734 -0.06841271 0.036511514 0.034410007 0.02753878 0.09288326 -0.08194177
0.07677086 0.10412387 -0.014779156 0.027152326 0.04354348 0.11861445 0.118376404 -0.10265665
-0.015906852 -0.08872169 0.03978616 -0.069037355 0.06648501 0.056869008 0.05361534 -0.11176397
0.02532573 0.11628231 -0.049499236 0.05350018 0.08077002 -0.00058617536 0.03144993 -0.10571389
-0.024241107 0.052323606 0.13384743 -0.09534592 -0.016941821 -0.088831 -0.08145359 -0.10364619
0.074466236 0.043657072 0.010157462 0.11940473 0.061543267 0.14198637 -0.025280194 0.00047553604
-0.019538881 0.11544333 -0.06278461 0.045545828 0.022506872 -0.08596853 0.08148228 -0.028179824
-0.02399118 -0.011436239 0.1145874 0.13080904 -0.009918955 -0.056328528 0.09477018 0.093231894
0.02783456 0.055411726 -0.027794743 0.02463497 0.10587465 -0.1367401 0.004999954 0.014783117
-0.022534503 0.10637741 -0.05322944 -0.05671512 0.07859464 0.14098376 0.07947623 -0.058029566
0.12016493 0.052322064 0.11501942 -0.032327186 -0.10961991 0.11751078 0.1206266 0.03926391
0.03074346 0.0750776 -0.0065424936 -0.048940483 -0.099323384 -0.12060957 0.069505386 -0.10243601
-0.14171627 0.04658837 -0.02294006 0.0120790675 0.018856438 -0.08111702 -0.07895926 0.0183284
0.089650236 0.0019222947 -0.11037009 -0.102220386 -0.11102813 -0.00038833515 0.05030899 -0.031295087
-0.06796087 -0.05662128 -0.1344274 0.0737257 0.07075723 -0.028818153 0.005944014 0.07848335
0.10584529 -0.09561913 -0.026727574 -0.00075467315 0.0840547 -0.011341375 -0.059489563 -0.021443069
0.15710445 0.029456135 0.09792035 -0.052819133 -0.050175846 0.06382806 -0.018074533 -0.05503316
-0.075840265 0.15603328 0.017532911 -0.016552465 -0.05354607 0.10545664 -0.014336315 0.10766723
0.12947802 0.043930892 0.03291648 0.12183927 0.15048668 0.035601024 0.071408704 0.048906393
0.036398206 0.023638317 -0.045530573 0.14363143 0.072554566 -0.07273178 0.05595438 -0.07095031
0.014115302 0.12543207 0.07958231 -0.030176196 0.025024451 -0.0070888125 0.09732146 -0.11372786
0.0013402406 0.09847776 0.098065674 -0.030795319 0.0055694827 0.16584894 -0.0997246 0.12911937
-0.0050881556 0.11055388 -0.08443733 -0.037802167 0.12887616 -0.03501244 0.04119814 0.06364154
-0.096129306 -0.054902475 0.06966508 -0.052558076 0.03212973 0.030494785 -0.08752223 0.055967763
00000000: c01b 0c3d 3c33 ca3d 53eb d5bb 2c25 abbd
00000010: b276 843d 87c7 6bbd e2b2 acbc 3217 3ebc
00000020: 5976 0d3e f799 033e d208 163e a3d9 d13d
00000030: 6f65 803a f356 b73c d252 89bd 9220 de3d
00000040: deeb f83d 4d96 b43d 12b1 e03d 856f 393d
00000050: 1c37 243d 1840 f63d ed62 8bbd 7aa3 25bd
00000060: 6c89 153e ca88 923b 06f0 48bc 3310 c43d
00000070: 5d23 0e3e db60 a3bd 95a6 c53d a8a5 b6bd
00000080: aaa9 ed3d 47f5 763d 0adc ccbb 1e39 e03d
00000090: 5991 183e cdd4 183e ee65 ad3c 35b8 c93d
000000a0: 1ced a33d 8447 a5bb 7e6e 14bd 6138 583d
000000b0: 8793 98bc 85ef 293e 5f07 9cbd 0241 5abd
000000c0: d410 56bd 9ca9 813c 1206 90bc 2627 9bbd
000000d0: 183a fb3c 49cd 063e ca87 783d 5bb0 bd3d
000000e0: af8a a8bd cbce 073e 5770 dd3d ac14 093d
000000f0: 8550 b1bd 37e9 a43c 95f0 87bd 442c 64bd
00000100: b8bc 2b3d 6c15 2a3e f71b 8cbd 198d 153d
00000110: 82f1 0c3d 0299 e13c 9439 be3d 16d1 a7bd
00000120: 0a3a 9d3d e53e d53d 4624 72bc 8e6e de3c
00000130: a65a 323d 22ec f23d 546f f23d a63d d2bd
00000140: 164f 82bc b8b3 b5bd d0f6 223d 7563 8dbd
00000150: 4b29 883d 7aef 683d c29b 5b3d 82e4 e4bd
00000160: e877 cf3c 6b25 ee3d b6bf 4abd 0123 5b3d
00000170: c16a a53d 90a9 19ba a4d1 003d 8680 d8bd
00000180: 4995 c6bc 4751 563d 4d0f 093e b944 c3bd
00000190: 93c9 8abc 07ed b5bd 24d1 a6bd 7444 d4bd
000001a0: c181 983d c2d1 323d 7c6b 263c 788a f43d
000001b0: cb14 7c3d e064 113e 6918 cfbc 5e51 f939
000001c0: 0110 a0bc 8d6d ec3d 3895 80bd 438e 3a3d
000001d0: 5560 b83c 4510 b0bd 2ee0 a63d 60d9 e6bc
000001e0: 2789 c4bc 105f 3bbc ccac ea3d cef2 053e
000001f0: 1d83 22bc beb8 66bd de16 c23d 5df0 be3d
00000200: 4e05 e43c 68f7 623d cdb1 e3bc 47cf c93c
00000210: cfd4 d83d 9905 0cbe a7d6 a33b e334 723c
00000220: 479a b8bc 66dc d93d 1d07 5abd 1d4e 68bd
00000230: 3af6 a03d 0c5e 103e 6fc4 a23d 69b0 6dbd
00000240: 0819 f63d a94f 563d 4d8f eb3d 8369 04bd
00000250: 6780 e0bd 7ea9 f03d 140b f73d 32d3 203d
00000260: b5d9 fb3c 49c2 993d 6a62 d6bb d175 48bd
00000270: 0f6a cbbd 2602 f7bd d758 8e3d f9c9 d1bd
00000280: 121e 11be 72d3 3e3d cbec bbbc 48e7 453c
00000290: d178 9a3c ae20 a6bd 64b5 a1bd 7125 963c
000002a0: 8b9a b73d 82f5 fb3a b709 e2bd ec58 d1bd
000002b0: b762 e3bd 7699 cbb9 cd10 4e3d 472f 00bd
000002c0: 122f 8bbd b7eb 67bd 56a7 09be 80fd 963d
000002d0: 2be9 903d 0c14 ecbc 01c6 c23b e1bb a03d
000002e0: 6ac5 d83d f6d3 c3bd c9f3 dabc 42d5 45ba
000002f0: df24 ac3d 2dd1 39bc 54ab 73bd 60a9 afbc
00000300: fddf 203e fe4d f13c 778a c83d e058 58bd
00000310: 3085 4dbd 49b8 823d 0b11 94bc 736a 61bd
00000320: 2452 9bbd 30c7 1f3e 2ea1 8f3c 0999 87bc
00000330: 2053 5bbd a7f9 d73d dde2 6abc a380 dc3d
00000340: e395 043e e1f0 333d 6ed3 063d de86 f93d
00000350: 2e19 1a3e 61d2 113d ba3e 923d 1252 483d
00000360: 4916 153d 25a5 c13c 447e 3abd 1e14 133e
00000370: 7d97 943d 66f4 94bd 6c30 653d 654e 91bd
00000380: de43 673c 4471 003e 0dfc a23d 1234 f7bc
00000390: 1400 cd3c 4549 e8bb 7950 c73d 27ea e8bd
000003a0: 03ab af3a b5ae c93d a8d6 c83d 7746 fcbc
000003b0: 3580 b63b 4ed4 293e 693c ccbd de37 043e
000003c0: 8bba a6bb 136a e23d 7bed acbd 72d6 1abd
000003d0: 1df8 033e 3469 0fbd 61bf 283d 7f56 823d
000003e0: 71df c4bd 6be1 60bd 91ac 8e3d 2347 57bd
000003f0: 779a 033d 33d0 f93c db3e b3bd 743e 653d

lstm.bias_hh_l0 f4 [256]
0.112810634 0.009719557 0.08358768 0.09281111 -0.064852305 -0.08447746 0.03520975 -0.06536661
0.13962576 0.12264632 0.09133416 -0.06507737 -0.085987814 0.030077 -0.05111467 -0.0401805
0.046483118 -0.005214614 0.08755127 0.07640814 0.059045292 -0.061028328 0.15067728 -0.010299536
-0.044217803 -0.074568175 0.05658126 0.08629182 0.14674953 -0.013892625 0.042866167 -0.08957203
0.021058643 0.003531556 0.13272704 0.050894875 0.08365265 0.12724079 0.12763274 -0.033275146
0.11790234 -0.009145544 -0.0056451424 0.011978945 -0.019357337 -0.049704187 -0.047917016 0.009441429
0.013753544 0.020579567 -0.06147883 0.05074517 -0.046248917 -0.019879363 0.09364778 0.017762085
-0.091546096 0.111275755 0.103619374 0.08757172 -0.08994783 0.027685534 -0.019332314 0.06356156
0.0199385 -0.01459915 -0.025349243 -0.082585424 -0.079889424 -0.031916182 0.11052331 -0.03322724
0.022661956 0.011618602 -0.02293559 0.09836273 0.07337709 0.120546475 0.11100544 -0.033429544
-0.07314798 0.11452061 -0.09560824 -0.08394522 0.011771958 -0.07931079 -0.019548628 0.025722038
0.1167209 0.09126402 0.14738825 0.04534391 -0.072140895 0.07034929 -0.07576846 -0.058610525
-0.060582858 0.12874104 0.1408997 0.09753654 -0.007925335 -0.05017377 0.047166433 -0.007932379
-0.11974677 -0.11306753 0.050691996 0.060043145 0.08487973 -0.01755876 0.11344096 0.047881667
0.043549024 0.114819236 0.0865086 -0.111316405 -0.06844227 0.032014173 0.11222823 0.085514866
-0.09026822 0.05955295 0.0009817765 -0.08098884 -0.08375948 -0.10024866 0.084736355 0.03645977
0.021317054 -0.069214426 0.0062160254 0.061639205 -0.033201084 -0.13463269 -0.09893113 -0.029172564
-0.067636006 0.01566909 -0.02650367 -0.021036176 0.09661673 0.06853443 -0.118820675 0.115606084
-0.023306973 0.043995786 0.0076632523 0.12115433 0.059113715 -0.04618505 -0.043036204 -0.062475927
-0.047986284 0.09252838 -0.024083469 -0.0665771 -0.028762473 0.039014652 0.12610622 0.123883374
-0.07019488 -0.10862397 0.07863184 0.065701604 0.03694152 0.10567808 0.053983726 0.07656433
0.12215764 0.06283529 0.032283336 -0.121422455 0.09362834 0.10466616 0.10972436 0.15336299
0.0026813885 -0.0039096214 -0.049590494 0.02752732 -0.10372803 -0.11364556 0.029496457 -0.12491402
0.02264533 0.07282914 -0.02808404 -0.1221863 -0.0067678136 0.049483713 -0.12868433 -0.030049447
-0.052578915 0.031483755 -0.10616317 0.12190355 0.08681557 0.027919073 -0.040087033 0.03452043
-0.016262164 -0.016868483 0.005620388 -0.07527235 0.09521768 0.09908406 0.01433269 0.03905469
0.011100394 0.08880511 0.067883044 0.034737475 -0.08246461 -0.023342421 0.06421544 0.040918358
0.13388537 0.06556383 0.024561582 0.024340374 -0.07243735 -0.036761586 0.01749379 -0.029797489
0.101297565 0.17469066 -0.06487372 0.15828337 0.15057437 -0.036552973 -0.0011706506 -0.0065042325
-0.051843725 -0.026308479 0.013750364 -0.073776744 -0.101685226 -0.054543443 0.05523565 0.02729798
-0.067888334 0.15682386 0.036990806 0.044897772 -0.041812696 0.11855238 0.12350815 0.12241994
-0.08809019 -0.04224165 0.13410184 0.002187028 0.08168779 -0.049052935 0.039441872 0.107264325
00000000: 4309 e73d c73e 1f3c 0430 ab3d c013 be3d
00000010: 49d1 84bd 8502 adbd 1938 103d eede 85bd
00000020: 0efa 0e3e fe2d fb3d 670d bb3d 4947 85bd
00000030: 611a b0bd 0a64 f63c 9e5d 51bd 4f94 24bd
00000040: 1565 3e3d 5adf aabb 154e b33d df7b 9c3d
00000050: 7ad9 713d d7f8 79bd 254b 1a3e 63bf 28bc
00000060: ba1d 35bd 33b7 98bd c0c1 673d c4b9 b03d
00000070: 8245 163e e59d 63bc 6f94 2f3d 8a71 b7bd
00000080: 2d83 ac3c ae71 673b 99e9 073e 2577 503d
00000090: 1552 ab3d 694b 023e 28b2 023e 854b 08bd
000000a0: c876 f13d 31d7 15bc e3fa b8bb 5643 443c
000000b0: 4793 9ebc 9e96 4bbd a244 44bd 39b0 1a3c
000000c0: 8b56 613c 7b96 a83c 3ad1 7bbd 2bda 4f3d
000000d0: 816f 3dbd 0cda a2bc 68ca bf3d cb81 913c
000000e0: 857c bbbd 8be4 e33d 6536 d43d cd58 b33d
000000f0: 9136 b8bd c6cc e23c cd5e 9ebc 902c 823d
00000100: 1156 a33c 4631 6fbc 37a9 cfbc 8c22 a9bd
00000110: 119d a3bd 8bba 02bd 0c5a e23d 4919 08bd
00000120: 91a5 b93c f35b 3e3c 6be3 bbbc 6672 c93d
00000130: ba46 963d 12e1 f63d d256 e33d 6bed 08bd
00000140: 9cce 95bd c889 ea3d 41ce c3bd 79eb abbd
00000150: 2cdf 403c b26d a2bd 7224 a0bc 06b7 d23c
00000160: 5e0b ef3d a1e8 ba3d f2ec 163e 89ba 393d
00000170: 9bbe 93bd 4a13 903d 7f2c 9bbd 9711 70bd
00000180: bb25 78bd b1d4 033e 0348 103e 3dc1 c73d
00000190: 44d9 01bc 0383 4dbd 9731 413d cff6 01bc
000001a0: cb3d f5bd f38f e7bd 69a2 4f3d cdef 753d
000001b0: 6dd5 ad3d 63d7 8fbc bc53 e83d 911f 443d
000001c0: 7660 323d 5926 eb3d 6c2b b13d dbf9 e3bd
000001d0: 762b 8cbd 4b21 033d ead7 e53d 6b22 af3d
000001e0: 8bde b8bd cbed 733d f4ae 803a 7add a5bd
000001f0: 178a abbd 2b4f cdbd 418a ad3d d756 153d
00000200: 1aa1 ae3c 4bc0 8dbd cdaf cb3b 6479 7c3d
00000210: dcfd 07bd 27dd 09be 679c cabd 4dfb eebc
00000220: bf84 8abd 775c 803c 391e d9bc 0f54 acbc
00000230: fede c53d c75b 8c3d 4158 f3bd e2c2 ec3d
00000240: 44ee bebc ed34 343d 051c fb3b c31f f83d
00000250: 3921 723d 892c 3dbd bb46 30bd c2e6 7fbd
00000260: 448d 44bd 857f bd3d b24a c5bc 9359 88bd
00000270: 479f ebbc d4cd 1f3d fd21 013e 91b6 fd3d
00000280: 55c2 8fbd 3e76 debd bb09 a13d 908e 863d
00000290: fe4f 173d c06d d83d 0a1e 5d3d c2cd 9c3d
000002a0: c92d fa3d caaf 803d 883b 043d 56ac f8bd
000002b0: 37c0 bf3d 365b d63d 2ab7 e03d 300b 1d3e
000002c0: 3cba 2f3b 481c 80bb 671f 4bbd f980 e13c
000002d0: 5d6f d4bd 01bf e8bd 8ea2 f13c ecd2 ffbd
000002e0: b382 b93c 7227 953d 8010 e6bc d03c fabd
000002f0: 89c4 ddbb 6faf 4a3d d3c5 03be 422a f6bc
00000300: fd5c 57bd 1cf5 003d 136c d9bd 92a8 f93d
00000310: 5dcc b13d 8ab6 e43c 4d32 24bd 4b65 0d3d
00000320: 3b38 85bc c62f 8abc 3b2b b83b 6428 9abd
00000330: 7d01 c33d 95ec ca3d a9d3 6a3c d0f7 1f3d
00000340: 6dde 353c 74df b53d 4406 8b3d e248 0e3d
00000350: 35e3 a8bd 9b38 bfbc 6283 833d 029a 273d
00000360: 3f19 093e 5446 863d 5f35 c93c 7765 c73c
00000370: 095a 94bd 5193 16bd 234f 8f3c dd19 f4bc
00000380: 1975 cf3d 1ce2 323e 83dc 84bd 0915 223e
00000390: 2b30 1a3e 92b8 15bd 8470 99ba 7521 d5bb
000003a0: 165a 54bd e184 d7bc 3549 613c 4318 97bd
000003b0: 5840 d0bd f268 5fbd c73e 623d 03a0 df3c
000003c0: 0a09 8bbd 6f96 203e ac83 173d bae6 373d
000003d0: ca43 2bbd 97cb f23d d7f1 fc3d 4eb7 fa3d
000003e0: a168 b4bd 9505 2dbd fe51 093e 3e54 0f3b
000003f0: ee4b a73d bbeb 48bd cd8d 213d 66ad db3d

lstm.weight_ih_l1 f4 [256, 64]
-0.037804276 -0.051251158 0.04543457 0.13922389 0.040534772 -0.024954993 -0.067688964 0.0038119224
0.06965546 -0.008631283 -0.015210778 0.06515006 -0.017014718 0.09900124 -0.082434244 -0.14362086
-0.08081593 -0.015634198 0.13175128 0.0506162 0.07131389 0.070701756 -0.042009443 -0.075537585
0.082108684 0.11423637 0.0689273 0.090153016 0.10375174 -0.12153847 -0.09717462 0.06435901
-0.10266757 0.036224905 -0.08807897 -0.036337804 -0.05430014 0.12988222 0.021400604 0.004521751
0.14032695 -0.08571903 0.088013396 0.074609146 0.027822807 -0.098480016 0.09804665 -0.054643184
-0.05652871 0.034109995 0.09194816 -0.015652511 -0.0286554 0.03960366 0.03094094 0.12031959
0.055550344 0.0477852 0.029167619 0.040598795 -0.03374711 -0.11962927 0.08943739 -0.11452587
0.030638345 0.053873483 -0.050398607 0.045642078 -0.024605876 -0.065824665 -0.123142384 0.057038456
-0.06535608 0.04680832 0.016921034 -0.07375767 0.0059957923 -0.0051812506 -0.09414222 -0.12883747
0.010476983 -0.014507278 -0.0030410371 0.05965759 -0.054693043 0.040150803 -0.017271748 -0.08579676
0.030211326 -0.0052270936 -0.14251903 0.078343645 0.068445295 -0.14934388 -0.060828827 -0.02685515
-0.07210621 0.057322845 0.09002285 0.07148976 -0.016088296 0.05725732 -0.019408353 0.05372536
0.026995871 0.040586222 -0.11111187 -0.11196343 0.14302878 -0.0034229965 0.15043715 0.014624046
-0.0001381282 -0.0815549 -0.08863537 0.092999965 -0.1173032 -0.07418708 -0.07391365 0.033804838
-0.061846465 0.12716563 -0.020919282 0.04442838 -0.084396966 -0.1134889 0.030895194 0.15593083
-0.052962713 -0.11462481 -0.050526436 0.16726303 -0.108557254 0.00073580537 0.02137181 -0.08903484
0.0580024 0.062850855 -0.09813802 -0.15698768 0.013527679 0.023776958 -0.08048065 -0.050321713
0.13521262 -0.0071906373 -0.022800308 0.13136989 0.12631862 -0.03648704 -0.06336734 0.09944344
0.03627591 0.10321398 -0.07453806 -0.018073505 -0.08353909 0.079963796 0.08379703 0.0870975
0.15322122 -0.08291419 -0.07158611 0.11662534 0.14551716 0.11665994 0.0722593 0.064281516
-0.012740019 0.15025161 0.117652 -0.15680115 -0.021092674 0.06739015 0.1167264 0.14153874
0.0893721 -0.07056677 -0.01444434 0.08947425 0.07370033 0.07835143 0.030565549 0.014581539
0.011600709 -0.054612387 -0.14440122 0.014130888 0.025638113 -0.053878035 0.11161364 -0.065955095
-0.050805505 -0.07325649 0.11004935 0.10565562 -0.12342286 -0.06013073 0.026249671 -0.115190774
-0.111429356 0.12192856 0.05583841 0.09616864 -0.07676138 -0.03263653 0.04511287 0.07414421
0.040722653 0.102625005 0.06195913 -0.07374499 -0.00937532 0.14430928 -0.062064156 0.13325089
0.073474154 0.0058815 -0.09382002 -0.09356489 0.021908142 0.036405135 -0.010026844 -0.022464072
-0.030033672 -0.12364451 -0.022429869 -0.09510235 0.09214722 0.027162742 0.11552045 -0.03552819
0.0050334972 -0.1022765 -0.102489494 0.05278614 0.021730317 -0.090440385 -0.03290576 -0.0074708294
-0.091190584 -0.012290746 -0.041597486 -0.10234048 0.061142053 -0.08524098 -0.034505516 -0.0692095
-0.07363699 -0.0046164095 0.041338176 -0.07610247 0.019898571 -0.005878301 -0.037697166 0.058167685
00000000: a8d8 1abd bcec 51bd 9a19 3a3d b590 0e3e
00000010: ca07 263d 6a6e ccbc 83a0 8abd 72d1 793b
00000020: 86a7 8e3d 3a6a 0dbc a136 79bc 656d 853d
00000030: 7362 8bbc 2ac1 ca3d 49d3 a8bd 5911 13be
00000040: d382 a5bd 4a13 80bc cfe9 063e ef52 4f3d
00000050: 040d 923d 15cc 903d 1812 2cbd 73b3 9abd
00000060: 9928 a83d c2f4 e93d c229 8d3d 25a2 b83d
00000070: cb7b d43d 29e9 f8bd 7d03 c7bd a8ce 833d
00000080: 6043 d2bd 9160 143d bf62 b4bd f3d6 14bd
00000090: d369 5ebd d8ff 043e 5250 af3c 322b 943b
000000a0: deb1 0f3e 758d afbd 5e40 b43d aecc 983d
000000b0: a8ec e33c e4af c9bd afcc c83d 88d1 5fbd
000000c0: a68a 67bd ecb6 0b3d 514f bc3d b239 80bc
000000d0: bbbe eabc 7337 223d db77 fd3c 1e6a f63d
000000e0: c288 633d 6aba 433d eef0 ee3c ec4a 263d
000000f0: 693a 0abd 3100 f5bd f32a b73d 8a8c eabd
00000100: 44fd fa3c 71aa 5c3d c56e 4ebd 30f3 3a3d
00000110: 4392 c9bc 15cf 86bd 1332 fcbd 28a1 693d
00000120: 69d9 85bd 15ba 3f3d fb9d 8a3c 430e 97bd
00000130: 5a78 c43b 7bc7 a9bb a3cd c0bd f8ed 03be
00000140: a7a7 2b3c efaf 6dbc 234c 47bb 845b 743d
00000150: d005 60bd 2b75 243d 7b7d 8dbc 36b6 afbd
00000160: be7d f73c 0a48 abbb 82f0 11be a272 a03d
00000170: 0c2d 8c3d 9aed 18be a627 79bd 55ff dbbc
00000180: 6cac 93bd 5ccb 6a3d e65d b83d 3969 923d
00000190: 9acb 83bc a786 6a3d 44fe 9ebc 200f 5c3d
000001a0: 7226 dd3c bd3d 263d 9f8e e3bd 154d e5bd
000001b0: 2376 123e 5a54 60bb 320c 1a3e b299 6f3c
000001c0: 82d6 10b9 4106 a7bd 7686 b5bd c476 be3d
000001d0: a93c f0bd 65ef 97bd 0a60 97bd f176 0a3d
000001e0: b852 7dbd b537 023e ea5e abbc 88fa 353d
000001f0: 51d8 acbd de6c e8bd eb17 fd3c 55ac 1f3e
00000200: 6eef 58bd 6ac0 eabd cff4 4ebd 0047 2b3e
00000210: 4453 debd 10e3 403a ef13 af3c e657 b6bd
00000220: ed93 6d3d f3b7 803d 96fc c8bd 61c1 20be
00000230: 33a3 5d3c e5c7 c23c 0ad3 a4bd 241e 4ebd
00000240: 2d75 0a3e 709f ebbb b6c7 babc d485 063e
00000250: ab59 013e 6f73 15bd bcc6 81bd 01a9 cb3d
00000260: 0c96 143d da61 d33d 69a7 98bd e30e 94bc
00000270: 8b16 abbd 0fc4 a33d c79d ab3d 2d60 b23d
00000280: 06e6 1c3e eace a9bd bd9b 92bd 44d9 ee3d
00000290: 7302 153e 68eb ee3d affc 933d 07a6 833d
000002a0: 83bb 50bc 8fdb 193e 88f3 f03d 7b90 20be
000002b0: 8bca acbc d903 8a3d 400e ef3d 88ef 103e
000002c0: b808 b73d 5085 90bd f4a7 6cbc 473e b73d
000002d0: 33f0 963d b776 a03d 9a64 fa3c 68e7 6e3c
000002e0: e610 3e3c 3db1 5fbd eadd 13be 3d85 673c
000002f0: 0507 d23c 37af 5cbd b195 e43d 7713 87bd
00000300: 6f19 50bd 8007 96bd 8e61 e13d f961 d83d
00000310: 20c5 fcbd a44b 76bd 8d09 d73c 24e9 ebbd
00000320: 1335 e4bd aeb5 f93d d1b6 643d 10f4 c43d
00000330: 1235 9dbd e2ad 05bd 46c8 383d ebd8 973d
00000340: cccc 263d 0f2d d23d dbc8 7d3d 9d07 97bd
00000350: f19a 19bc d0c5 133e fc36 7ebd ec72 083e
00000360: 9e79 963d 99b9 c03b b624 c0bd f39e bfbd
00000370: b478 b33c 8d1d 153d a247 24bc 9306 b8bc
00000380: 2d09 f6bc 5539 fdbd d8be b7bc 05c5 c2bd
00000390: afb7 bc3d 6684 de3c fc95 ec3d 0286 11bd
000003a0: 09f0 a43b 5776 d1bd 03e6 d1bd 4836 583d
000003b0: c703 b23c cf38 b9bd 31c8 06bd dccd f4bb
000003c0: 21c2 babd 205f 49bc 2062 2abd e397 d1bd
000003d0: 1770 7a3d d392 aebd a855 0dbd b6bd 8dbd
000003e0: fdce 96bd 4045 97bb 3852 293d 9ddb 9bbd
000003f0: 5402 a33c c39e c0bb 5868 1abd 3d41 6e3d

lstm.weight_hh_l1 f4 [256, 64]
-0.02860708 -0.027727658 -0.051995013 0.14562061 -0.026095062 -0.08829291 -0.016490303 -0.12942603
-0.07771927 0.018137569 0.118266426 -0.0045295013 0.0752978 0.0448136 -0.08029434 0.14857675
-0.08685533 -0.050302975 6.911809e-05 0.016734466 0.05009848 0.13040896 0.059851535 -0.0011949746
-0.06688983 -0.020351734 0.16479795 -0.0035307761 -0.06212878 0.09776809 0.07867279 -0.08115564
-0.06184106 -0.09660665 0.09067766 -0.016704781 -0.06295154 -0.020803256 0.10131909 0.058739364
-0.08626379 -0.11363231 -0.068819866 -0.14849731 0.058993615 -0.044137284 -0.018668482 -0.098096706
0.07120656 -0.08130024 0.078926824 -0.047779612 0.07040153 -0.13538642 -0.10409037 -0.005327593
-0.15277424 -0.018460454 0.09437559 0.08634319 -0.07472868 0.11733853 0.06910973 -0.058999322
-0.08283079 0.0843775 -0.09846465 -0.02851607 0.15952416 -0.013748695 -0.07478252 -0.10616891
-0.11566081 -0.07339655 -0.026956758 -0.03070331 -0.1431592 0.037102338 -0.06241689 0.019523127
-0.0573134 -0.014828933 0.09211688 0.08746378 0.06800694 0.14529638 0.089718595 -0.036319233
-0.13491707 -0.062183447 0.062135532 0.016877003 0.0720169 0.079997964 0.120932594 0.09663857
-0.12651387 0.10278694 0.02431494 0.047703773 0.03749068 -0.0062627583 0.12858307 -0.06870422
0.1317418 -0.10884268 -0.044378843 0.025202975 0.050171524 0.13959356 -0.07597258 0.073005915
-0.12805718 -0.07609232 -0.014863008 0.09430702 -0.09061945 -0.12045651 -0.11984882 0.0064410265
0.05300639 -0.060545124 0.03960067 -0.0016757468 -0.0035849207 0.100508794 0.13504584 0.04892954
0.09909308 -0.14655165 -0.023573618 -0.08292983 0.10926312 0.101352684 0.12083413 -0.14327036
0.10986456 -0.0005541069 -0.0029565739 -0.060864743 0.08720161 0.055577632 0.012057955 0.014169773
0.10509333 0.004147938 0.09610156 -0.14797767 -0.08114642 -0.015956515 -0.06893056 0.09243055
-0.13242643 -0.08064712 -0.014183009 0.038827218 -0.03882279 -0.087826796 -0.09351476 -0.041107964
-0.054974023 -0.08842739 0.025213897 -0.05811878 -0.058302052 0.06805135 -0.065878205 0.10051437
0.10847617 -0.10927341 0.12663631 -0.09837489 -0.032139216 -0.08121154 0.019498894 -0.106562495
0.023775188 0.056018595 -0.006484395 -0.09040357 -0.056071367 0.02119455 0.09217647 0.06253487
0.005029508 0.007850588 0.06909067 0.016165134 0.14355278 -0.00206075 0.11082437 -0.07415958
-0.026459321 -0.09066325 0.09030953 -0.012405392 -0.013663314 0.09608505 0.025992673 0.0843423
-0.006241241 -0.118133366 -0.02904259 0.068452984 -0.04941793 -0.043597493 0.09015715 0.1386772
-0.037757594 -0.071699254 -0.0806049 0.03242585 0.043497413 0.1059985 0.02293383 0.09397223
-0.12995513 0.11529002 0.00094164454 -0.03275935 -0.09305834 0.14674269 0.021256035 0.13422486
-0.11711623 -0.00039925345 -0.080415756 0.05688221 -0.038604554 0.04676639 0.0653292 0.0012385411
-0.07107555 -0.02442778 -0.092517905 -0.1261467 0.110129304 -0.07968709 -0.0041970033 0.10106192
0.0052861236 0.09910196 -0.01575929 -0.03868406 0.12084964 0.0038710814 -0.08155834 0.0061408775
-0.033896826 -0.072341315 0.08764515 -0.10169946 0.0743336 0.10914563 0.02760178 -0.13072176
00000000: 6559 eabc 1d25 e3bc b9f8 54bd 921d 153e
00000010: 50c5 d5bc ead2 b4bd ac16 87bc 4288 04be
00000020: 482b 9fbd 3d95 943c ab35 f23d 366c 94bb
00000030: bc35 9a3d 778e 373d 5c71 a4bd 8124 183e
00000040: 35e1 b1bd 7e0a 4ebd 7ef3 9038 b816 893c
00000050: 1034 4d3d ed89 053e e226 753d b2a0 9cba
00000060: 89fd 88bd aeb8 a6bc cbc0 283e 9864 67bb
00000070: bf7a 7ebd a33a c83d 331f a13d ee34 a6bd
00000080: 0d4d 7dbd b5d9 c5bd 36b5 b93d 77d8 88bc
00000090: bdec 80bd 976b aabc 6280 cf3d b098 703d
000000a0: 12ab b0bd 0eb8 e8bd 6ef1 8cbd ae0f 18be
000000b0: 4aa3 713d 4cc9 34bd a5ee 98bc ede6 c8bd
000000c0: bfd4 913d bd80 a6bd 63a4 a13d 8eb4 43bd
000000d0: ad2e 903d bda2 0abe 552d d5bd 1793 aebb
000000e0: da70 1cbe 613a 97bc fd47 c13d b3d4 b03d
000000f0: 5a0b 99bd 2f4f f03d 6789 8d3d 46a9 71bd
00000100: 30a3 a9bd 1cce ac3d d6a7 c9bd 899a e9bc
00000110: 4d5a 233e 3542 61bc 9427 99bd 166f d9bd
00000120: 93df ecbd ee50 96bd 6bd4 dcbc 8285 fbbc
00000130: 5398 12be 9ff8 173d daa8 7fbd f7ee 9f3c
00000140: 75c1 6abd 0ef5 72bc c6a7 bc3d 3620 b33d
00000150: 3947 8b3d 93c8 143e 62be b73d 7ac3 14bd
00000160: b327 0abe 12b4 7ebd d481 7e3d a441 8a3c
00000170: 997d 933d f9d5 a33d 82ab f73d 71ea c53d
00000180: da8c 01be f681 d23d 2030 c73c 0865 433d
00000190: d48f 193d d337 cdbb 48ab 033e ccb4 8cbd
000001a0: 53e7 063e e9e8 debd 97c6 35bd 7876 ce3c
000001b0: a880 4d3d 9df1 0e3e 8397 9bbd 2084 953d
000001c0: 6c21 03be 4ad6 9bbd f983 73bc 0a24 c13d
000001d0: b196 b9bd e7b1 f6bd 4c73 f5bd 3f0f d33b
000001e0: 3a1d 593d 2afe 77bd 5034 223d bba4 dbba
000001f0: fdf0 6abb 8ed7 cd3d 7549 0a3e 576a 483d
00000200: 50f1 ca3d a311 16be 761d c1bc 1dd7 a9bd
00000210: 58c5 df3d ff91 cf3d e277 f73d 77b5 12be
00000220: ac00 e13d 7c41 11ba 14c3 41bb 4f4d 79bd
00000230: c296 b23d 5fa5 633d bb8e 453c 5628 683c
00000240: 2c3b d73d 6deb 873b e5d0 c43d 7587 17be
00000250: 1830 a6bd 3db7 82bc 772b 8dbd 3a4c bd3d
00000260: cb9a 07be 512a a5bd da5f 68bc 4a09 1f3d
00000270: a504 1fbd 89de b3bd ab84 bfbd d360 28bd
00000280: 712c 61bd 6b19 b5bd 608d ce3c f50d 6ebd
00000290: 22ce 6ebd 825e 8b3d 27eb 86bd 7ada cd3d
000002a0: c128 de3d bdca dfbd f3ac 013e c678 c9bd
000002b0: 69a4 03bd 3c52 a6bd 25bc 9f3c 703d dabd
000002c0: 2fc4 c23c c173 653d 0c7b d4bb 8225 b9bd
000002d0: 17ab 65bd 31a0 ad3c 04c7 bc3d 4812 803d
000002e0: 92ce a43b c19f 003c 697f 8d3d be6c 843c
000002f0: 80ff 123e a60d 07bb e3f7 e23d fae0 97bd
00000300: 38c1 d8bc a7ad b9bd 34f4 b83d fc3f 4bbc
00000310: 18dc 5fbc 3dc8 c43d 96ee d43c a8bb ac3d
00000320: 5383 ccbb e8ef f1bd baea edbc 1431 8c3d
00000330: 756a 4abd 4993 32bd 50a4 b83d 6501 0e3e
00000340: b5a7 1abd 0fd7 92bd 2f14 a5bd f8d0 043d
00000350: 582a 323d be15 d93d badf bb3c 8374 c03d
00000360: f512 05be 2d1d ec3d b2d8 763a ab2e 06bd
00000370: 5f95 bebd b743 163e 2321 ae3c 3e72 093e
00000380: a2da efbd e452 d1b9 04b1 a4bd 52fd 683d
00000390: cf1f 1ebd 1d8e 3f3d 51cb 853d 8b56 a23a
000003a0: 0f90 91bd c51c c8bc 077a bdbd 9a2c 01be
000003b0: 798b e13d fc32 a3bd 0487 89bb 8df9 ce3d
000003c0: 3837 ad3b f8f5 ca3d a019 81bc 2d73 1ebd
000003d0: 0480 f73d f8b1 7d3b 0f08 a7bd 6a39 c93b
000003e0: 66d7 0abd af27 94bd 4d7f b33d ce47 d0bd
000003f0: 373c 983d be87 df3d 211d e23c eddb 05be

lstm.bias_ih_l1 f4 [256]
0.0007381803 0.06593531 -0.04057106 -0.0600782 0.10069696 -0.014307439 0.09989505 -0.051161233
0.107326455 0.08751893 -0.031283718 -0.07148882 -0.058718417 0.068553336 4.2054395e-05 0.08461592
0.12944935 -0.005817859 -0.096288 -0.07163271 -0.08098423 0.040174153 -0.102830194 0.022270333
0.073271856 -0.07026172 0.0144350855 -0.021097844 -0.048423074 0.029147558 -0.07375893 0.16097443
-0.030776182 0.030359143 -0.017389042 0.055522118 -0.08748425 0.05519906 0.06700607 0.007203446
0.015433554 -0.039061636 -0.070024945 0.09992911 -0.07762315 -0.09891081 0.046122164 -0.06243489
-0.09588353 0.09313476 0.07144469 -0.046953507 0.09268656 0.043714758 -0.03434858 0.10448499
0.07977738 0.08455736 0.13875547 0.13537367 -0.061655812 0.009723081 -0.008132402 0.02009584
0.08320116 -0.038909286 -0.039024338 -0.03343288 -0.0748761 -0.06303756 -0.079985894 -0.08976044
-0.034214016 0.12750499 0.07776273 -0.07949345 0.09476596 0.08991059 0.09789994 0.043117266
0.08118147 -0.10699838 0.10116576 -0.106319696 0.11566255 0.08937024 0.009433977 -0.074148305
-0.048273038 0.089573584 0.019715553 -0.005988512 0.055720888 -0.00864792 0.06453348 -0.08478525
0.11652043 -0.07256547 0.07859361 0.050038125 0.00058811216 -0.08043434 0.09794057 -0.04599804
-0.03613844 0.02811052 0.0061669275 -0.04451198 -0.078063324 -0.06384743 0.019782998 -0.04855534
0.020697448 0.0910198 -0.020143116 0.07701886 -0.04949408 -0.115123235 0.1066107 0.020596363
0.055777844 -0.019509256 0.12081713 0.031736586 0.041507088 -0.0034476568 0.07701091 -0.04343801
0.11580915 -0.11422082 -0.052538507 0.12594964 0.111209966 0.058057833 0.06422563 -0.11012162
-0.03472025 -0.0930747 0.11934228 -0.10467754 -0.09034362 -0.111923665 0.08847942 0.08231491
-0.075477496 0.09424235 -0.008383135 0.07401072 0.03295679 0.123653665 0.049330764 0.028718729
-0.068339676 -0.046821155 0.10129914 -0.053961016 0.050777618 0.043616775 0.042336337 -0.037209358
-0.016406484 0.019626629 0.01217336 0.052025147 -0.08100645 0.009997034 0.07513838 -0.016574599
0.08316 -0.03880886 -0.06789623 -0.050684217 0.09167845 -0.061216615 0.11854502 0.10764039
-0.0105130505 0.08050391 -0.033989217 -0.0790498 0.11234662 0.08911426 -0.008900405 0.073576674
-0.11351402 -0.10863383 -0.04817318 0.06386728 -0.013598584 0.051514097 0.13463299 -0.019135458
0.08294044 0.1607741 -0.025819225 0.1416223 -0.08809183 -0.04321051 0.027302874 0.054242928
0.1134206 0.025683517 -0.03712858 -0.034325097 -0.014228351 -0.061503626 -0.021472527 0.090334825
-0.08795217 0.112881765 0.07444213 0.109679684 -0.09098847 0.02110472 0.11548996 0.037437856
-0.11481152 0.10290335 0.13599515 0.09701238 0.05303658 -0.057800733 0.06339685 0.13769476
-0.074869804 0.15060575 -0.069837295 -0.08331187 0.13222785 -0.02755191 -0.03926027 0.00010709453
0.044906907 -0.027358823 0.111637086 -0.0020682982 -0.03255478 0.03963981 -0.004214892 0.088149086
-0.042813666 -0.042829216 0.029687207 -0.05618126 0.020440679 0.12722832 0.1002289 -0.06281675
-0.04427537 -0.0807783 -0.037585557 0.014800087 0.107061155 -0.03871917 0.08409296 -0.069578275
00000000: 7182 413a 1809 873d d72d 26bd 8f14 76bd
00000010: 353a ce3d c069 6abc c795 cc3d 718e 51bd
00000020: f9cd db3d 203d b33d 5b23 00bd bb68 92bd
00000030: b982 70bd b165 8c3d 9063 3038 1d4b ad3d
00000040: 5f8e 043e bda3 bebb a532 c5bd 2cb4 92bd
00000050: 0fdb a5bd a78d 243d a398 d2bd 4670 b63c
00000060: 8e0f 963d 60e5 8fbd 2381 6c3c 63d5 acbc
00000070: 4657 46bd dcc6 ee3c ec0e 97bd 7bd6 243e
00000080: 551e fcbc bdb3 f83c 7773 8ebc 296b 633d
00000090: f12a b3bd 6918 623d 7a3a 893d e20a ec3b
000000a0: 04dd 7c3c 18ff 1fbd 3d69 8fbd a2a7 cc3d
000000b0: e3f8 9ebd c091 cabd 98ea 3c3d babb 7fbd
000000c0: 965e c4bd 70bd be3d 9851 923d 5252 40bd
000000d0: 73d2 bd3d 3f0e 333d 19b1 0cbd 3afc d53d
000000e0: 5362 a33d 692c ad3d ea15 0e3e 659f 0a3e
000000f0: ce8a 7cbd 8f4d 1f3c c43d 05bc 08a0 a43c
00000100: 5f65 aa3d 585f 1fbd fcd7 1fbd eaf0 08bd
00000110: a458 99bd d619 81bd a5cf a3bd 52d4 b7bd
00000120: ff23 0cbd ab90 023e 1142 9f3d 76cd a2bd
00000130: a814 c23d 0b23 b83d c47f c83d bb9b 303d
00000140: 7842 a63d f721 dbbd fe2f cf3d 24be d9bd
00000150: 7de0 ec3d bf07 b73d f890 1a3c 11db 97bd
00000160: f3b9 45bd 5b72 b73d 8382 a13c 483b c4bb
00000170: 963b 643d 01b0 0dbc 212a 843d e4a3 adbd
00000180: 43a2 ee3d 359d 94bd b0f5 a03d c7f4 4c3d
00000190: 8a2b 1a3a c2ba a4bd 1195 c83d 7168 3cbd
000001a0: e705 14bd 0948 e63c f013 ca3b 3252 36bd
000001b0: aadf 9fbd 71c2 82bd f40f a23c f7e1 46bd
000001c0: b28d a93c 9768 ba3d 2d03 a5bc 10bc 9d3d
000001d0: 4eba 4abd bbc5 ebbd b656 da3d b4b9 a83c
000001e0: 4f77 643d e0d1 9fbc f96e f73d 39fe 013d
000001f0: 5603 2a3d 15f2 61bb e5b7 9d3d 0eec 31bd
00000200: 592d ed3d 9bec e9bd 9e32 57bd f1f8 003e
00000210: 0dc2 e33d 0dce 6d3d ba88 833d 7287 e1bd
00000220: d236 0ebd f39d bebd ba69 f43d 2e61 d6bd
00000230: 1306 b9bd 3c38 e5bd b334 b53d b894 a83d
00000240: f293 9abd 2202 c13d 6b59 09bc ef92 973d
00000250: b3fd 063d 223e fd3d 0e0f 4a3d 8a43 eb3c
00000260: acf5 8bbd 8ac7 3fbd ec75 cf3d 3a06 5dbd
00000270: 31fc 4f3d 81a7 323d de68 2d3d d768 18bd
00000280: e466 86bc 06c8 a03c c672 473c 5218 553d
00000290: b6e6 a5bd 9aca 233c 27e2 993d 74c7 87bc
000002a0: ca4f aa3d 0af6 1ebd 2e0d 8bbd 419a 4fbd
000002b0: e9c1 bb3d 46be 7abd bbc7 f23d 9172 dc3d
000002c0: ee3e 2cbc 3cdf a43d 4738 0bbd dde4 a1bd
000002d0: fc15 e63d 8a81 b63d 01d3 11bc 5eaf 963d
000002e0: 0a7a e8bd 6a7b debd 3e51 45bd d9cc 823d
000002f0: 98cc 5ebc 7200 533d 3bdd 093e f7c1 9cbc
00000300: addc a93d f7a1 243e d782 d3bc 7005 113e
00000310: 7d69 b4bd 81fd 30bd 47aa df3c d52d 5e3d
00000320: 0f49 e83d 3d66 d23c 2314 18bd 7998 0cbd
00000330: 081e 69bc 3aeb 7bbd 27e7 afbc 7701 b93d
00000340: 4420 b4bd 8e2e e73d 1e75 983d be9f e03d
00000350: 2a58 babd cee3 ac3c 0086 ec3d 7058 193d
00000360: 4d22 ebbd febe d23d 5042 0b3e 6dae c63d
00000370: e33c 593d 76c0 6cbd 35d6 813d dbff 0c3e
00000380: 5755 99bd 6538 1a3e db06 8fbd 6a9f aabd
00000390: bd66 073e 8bb4 e1bc 60cf 20bd f097 e038
000003a0: 4ef0 373d 9c1f e0bc fca1 e43d 498c 07bb
000003b0: 2958 05bd 5a5d 223d 141d 8abb 8287 b43d
000003c0: 625d 2fbd b06d 2fbd 9632 f33c 521e 66bd
000003d0: 3673 a73c 2448 023e cf44 cd3d 11a6 80bd
000003e0: 175a 35bd 186f a5bd 50f3 19bd 107c 723c
000003f0: e142 db3d fe97 1ebd ee38 ac3d 0e7f 8ebd
